trained_model.pth (torch, 13847 bytes, 6 tensors)

fc1.weight f4 [64, 9]
0	0x3e65b955	0.2243398
1	0x3eaffff3	0.3437496
2	0xbe37da2e	-0.17954323
3	0xbe2d4c56	-0.16923651
4	0xbe17b115	-0.14813645
5	0xbe1ca69e	-0.15297934
6	0xbc9b138a	-0.018930215
7	0x3dd55bc0	0.104178905
8	0x3e9961b1	0.29957345
9	0x3e6c31fc	0.23065943
10	0x3e5e10fa	0.21686164
11	0xbdc6fafa	-0.09715839
12	0x3e1d4a35	0.15360339
13	0xbcc3ede7	-0.023917152
14	0x3e48a134	0.19592744
15	0x3e71b556	0.2360433
16	0x3c6cc17b	0.014450426
17	0xbe618f3c	-0.22027296
18	0xbd9ffbd0	-0.07811701
19	0xbeacb600	-0.33732605
20	0x3c0c12d7	0.008549414
21	0xbe959f37	-0.29223034
22	0xbe814a7c	-0.2525214
23	0x3d859495	0.065224804
24	0xbd21d413	-0.03950889
25	0xbe0f889c	-0.14016956
26	0x3e97ce71	0.2964969
27	0xbe1cf5a9	-0.15328087
28	0x3d5c7dec	0.053831026
29	0xbcb67ea3	-0.022277182
30	0x3e40d8e1	0.18832733
31	0xbe4e8e46	-0.2017146
32	0xbe6c2567	-0.23061143
33	0xbd1fa50e	-0.038975768
34	0xbdc83946	-0.09776549
35	0x3d4f39ea	0.05059234
36	0x3ea9f327	0.33193323
37	0x3dd86450	0.10566008
38	0xbdcd8eb8	-0.10036987
39	0xbe302191	-0.17200305
40	0x3d09a631	0.033605758
41	0x3e13d6eb	0.14437453
42	0x3e13f595	0.14449151
43	0xbe47c94a	-0.1951038
44	0x3e628a5b	0.22123091
45	0x3e41b10b	0.18915193
46	0x3e06a732	0.13149717
47	0x3eb4616b	0.35230574
48	0x3e34d872	0.17660692
49	0x3d78c807	0.060737636
50	0xbe9748ba	-0.29547673
51	0xbe9630b0	-0.2933402
52	0xbe069b9b	-0.13145296
53	0xbd619379	-0.05507228
54	0x3e82e12a	0.25562412
55	0x3dddf717	0.10838144
56	0x3cbe1064	0.023201175
57	0x3dc028b9	0.09382767
58	0xbd129b43	-0.0357926
59	0x3d5ee7ee	0.054420404
60	0x3e927e3c	0.28611934
61	0xbe8c1484	-0.27359402
62	0xbe901d32	-0.28147274
63	0xbda88815	-0.082290806
64	0xbe84695e	-0.2586164
65	0xbe591823	-0.21200614
66	0xbe1092f8	-0.14118564
67	0x3e911d5f	0.2834272
68	0x364cf400	3.0540396e-06
69	0xbe7c9dfe	-0.24669644
70	0xbe783144	-0.24237543
71	0x3de01b9b	0.10942765
72	0x3e567ecc	0.20946807
73	0x3e3933e7	0.18086205
74	0xbe907c33	-0.28219756
75	0x3def6554	0.11689249
76	0xbe8311af	-0.2559943
77	0x3e2b4805	0.16726692
78	0x3e19151d	0.1494946
79	0x3e3b0c0a	0.18266311
80	0x3ebfdb3e	0.37471956
81	0x3e792d9e	0.24333808
82	0x3e4c3a7e	0.19944188
83	0x3e08ef0a	0.13372436
84	0x3e9acee6	0.30235976
85	0xbe884cc5	-0.2662107
86	0x3cfba427	0.030717922
87	0x3e5c11f4	0.21491224
88	0xbe46f04e	-0.19427606
89	0x3e413d4e	0.18871042
90	0xbe398edc	-0.18120903
91	0xbe70ed62	-0.23528054
92	0xbd796a0a	-0.060892142
93	0x3e4c4ed6	0.19951949
94	0xbe13eb2b	-0.14445178
95	0x3e87e502	0.26541907
96	0xbb9dc8ee	-0.0048152125
97	0x3e8b87ef	0.27252147
98	0x3e0d270a	0.13784423
99	0x3e8bc133	0.27295837
100	0xbe108a1d	-0.14115186
101	0xbd9f0e76	-0.0776643
102	0xbe51b26b	-0.20478217
103	0xbe3a5749	-0.18197359
104	0xbd81ab4c	-0.063315004
105	0x3ea5b862	0.32367235
106	0x3e92b008	0.28649926
107	0x3c05005d	0.008117762
108	0xbce56744	-0.028003342
109	0xbebdfc97	-0.37106773
110	0xbe09efbe	-0.1347036
111	0xbe999536	-0.2999665
112	0xbdcd3a22	-0.100208536
113	0x3e130d4a	0.14360538
114	0x3e45bcda	0.19310322
115	0x3e922b43	0.2854863
116	0x3e5093f4	0.2036894
117	0xbe451e97	-0.1924995
118	0xbe900124	-0.2812587
119	0xbe9d6168	-0.30738378
120	0x3e5e293f	0.21695422
121	0x3e85b879	0.26117304
122	0x3ea739bc	0.32661235
123	0xbe94e97a	-0.29084378
124	0xbdee98fe	-0.11650275
125	0x3d0d3008	0.034469634
126	0x3e038272	0.1284273
127	0x3d5bfb12	0.053706236
128	0x3c2af98a	0.010435471
129	0xbe385dcc	-0.1800453
130	0x3e379110	0.1792643
131	0x3e56bf2c	0.20971364
132	0x3dc74cf6	0.09731476
133	0xbe11572d	-0.14193411
134	0xbdce716b	-0.100802265
135	0x3e845970	0.25849485
136	0x3df23b5a	0.11827727
137	0xbd50935a	-0.050921775
138	0x3e2b172a	0.16708055
139	0xbe27ca6c	-0.16385812
140	0x3e37365d	0.17891832
141	0xbe06585c	-0.13119644
142	0xbd44432a	-0.047915615
143	0xbbb8ac62	-0.005635784
144	0xbd8efc7b	-0.069817506
145	0x3cdefe26	0.027220797
146	0x3e7783c0	0.24171352
147	0xbe3f31d8	-0.18671358
148	0xbe22af7e	-0.15887257
149	0xbe38efc2	-0.1806021
150	0xbe4a3f02	-0.19750598
151	0x3e16ecf4	0.14738828
152	0x3dfe8f38	0.124296606
153	0x3e832702	0.25615698
154	0x3e96533c	0.29360378
155	0xbde6e9cd	-0.11275063
156	0x3dd88701	0.10572625
157	0x3e32abb9	0.1744832
158	0x3e93c6d8	0.28862643
159	0xbe9b7671	-0.303638
160	0xbe537701	-0.20650865
161	0xbea3bbc0	-0.3197918
162	0xbe9c3b63	-0.30514058
163	0x3d200ca1	0.039074544
164	0x3e2037cb	0.15646283
165	0xbdc9f98a	-0.09862049
166	0x3e1b2b9d	0.15153356
167	0xbdef5c53	-0.11687531
168	0xbe3b073a	-0.18264475
169	0x3d6b6304	0.057467476
170	0xbdba08b8	-0.09083694
171	0xbe9eb91e	-0.31000608
172	0xbdff8996	-0.12477414
173	0xbc68cf88	-0.014209636
174	0x3e8a0fbd	0.26965132
175	0x3d5c41a9	0.053773556
176	0x3e90c31f	0.28273866
177	0x3e2c85ab	0.16847865
178	0xbe6420b6	-0.22278103
179	0x3e9dbf89	0.30810192
180	0xbdda8784	-0.10670379
181	0x3e658fe7	0.22418176
182	0x3e9aa93e	0.30207247
183	0x3e6c2af1	0.23063256
184	0x3e164f38	0.14678657
185	0xbe8271e0	-0.25477505
186	0xbd8d794d	-0.06907902
187	0x3d68d696	0.05684527
188	0x3e96bc59	0.29440573
189	0xbe8cea21	-0.27522376
190	0x3e49397f	0.1965084
191	0xbe6a6cd3	-0.22893076
192	0xbd67f710	-0.0566321
193	0x3e8b8ac6	0.27254313
194	0xbe829d44	-0.2551061
195	0xbe814bb2	-0.25253063
196	0xbe385054	-0.17999393
197	0xbd5d0e50	-0.053968728
198	0xbe5bdf9d	-0.2147202
199	0xbd721076	-0.05909773
200	0x3d819fd3	0.06329312
201	0xba5c6bde	-0.00084084074
202	0xbe2242bb	-0.15845768
203	0xbe855656	-0.26042432
204	0xbdc5ee83	-0.09664633
205	0xbd214a40	-0.03937745
206	0xbe7bca53	-0.245889
207	0x3e729900	0.23691177
208	0xbe6d1e8b	-0.23156182
209	0xbe5f8ac2	-0.21830276
210	0xbdb9c60d	-0.09070978
211	0xbd314efa	-0.04328821
212	0xbe321f5a	-0.17394772
213	0xbeb0050b	-0.34378847
214	0xbe17bb06	-0.14817438
215	0x3d430801	0.047615055
216	0x3e710685	0.23537643
217	0xbe6ae432	-0.22938612
218	0xbce12f46	-0.027488362
219	0xbe782a1d	-0.24234815
220	0x3de32a38	0.11092037
221	0xbe05eee5	-0.13079412
222	0xbe27423e	-0.16333863
223	0x3e287f8b	0.16454904
224	0x3c9d8fee	0.01923367
225	0xbe59a641	-0.21254827
226	0x3e88aac8	0.26692796
227	0x3e969673	0.2941166
228	0x3e8f36e7	0.27971575
229	0x3e3477f0	0.17623878
230	0xbe90b740	-0.2826481
231	0xbe1ce399	-0.15321197
232	0x3e09ca8a	0.13456169
233	0xbdc888ab	-0.09791692
234	0xbe1acf42	-0.15118125
235	0x3e28aed9	0.16472949
236	0x3eb6dadb	0.35713848
237	0xbe8d7798	-0.27630305
238	0xbe5de29f	-0.2166848
239	0xbe8a8294	-0.27052748
240	0x3e0f9f65	0.14025648
241	0x3e5d61c3	0.21619324
242	0xbe9f5d92	-0.31126076
243	0xbe8d1ee4	-0.2756263
244	0xbe587bf2	-0.21141031
245	0xbe89d047	-0.26916716
246	0xbe3b8179	-0.18311109
247	0xbda6740d	-0.08127604
248	0x3e0f6404	0.14002997
249	0x3e87e030	0.2653823
250	0x3d815355	0.063147224
251	0x3dbe8ec4	0.09304574
252	0xbe7281b8	-0.23682296
253	0x3e7c907c	0.24664491
254	0xbcb61117	-0.022224946
255	0x3ea4b601	0.32170108

fc1.bias f4 [64]
0	0x3e0e6156	0.13904318
1	0x3c603583	0.013684633
2	0x3e157bb9	0.14597978
3	0x3e9a43be	0.30129808
4	0x3e98025b	0.29689297
5	0xbe58ebad	-0.21183653
6	0x3e971783	0.29510126
7	0x3e3745b6	0.17897686
8	0xbd884ffb	-0.0665588
9	0xbe9cb75f	-0.3060865
10	0x3db032ac	0.08603415
11	0x3e3510fb	0.17682259
12	0xbe0b8ea1	-0.13628627
13	0x3e885281	0.26625445
14	0x3e4825b4	0.19545633
15	0xbe11c2b7	-0.14234434
16	0x3d07a916	0.033120237
17	0x3eb525ab	0.353803
18	0xbe83959a	-0.25700074
19	0xbea40717	-0.3203666
20	0xbe8652e1	-0.26235107
21	0xbdc988a7	-0.098405175
22	0x3d527ff0	0.051391542
23	0x3e45b869	0.19308628
24	0x3dc04546	0.09388213
25	0xbdc64472	-0.09681024
26	0xbe3ae3c4	-0.18250948
27	0xbe8e346a	-0.27774364
28	0xbe8318fe	-0.25605005
29	0xbe549a05	-0.20761879
30	0x3e7c653c	0.24647993
31	0x3d4d973a	0.05019305
32	0x3e85604b	0.26050028
33	0xbd7442f5	-0.059634168
34	0xbe0c4431	-0.13697888
35	0x3e5b1f3f	0.21398638
36	0x3e33c52a	0.17555681
37	0x3e1979d1	0.14987876
38	0xbe112a31	-0.14176251
39	0x3e2845df	0.16432904
40	0xbca6ea6e	-0.020375457
41	0xbe7ff057	-0.24994026
42	0xbd351166	-0.044206046
43	0x3cf0d5bf	0.029398797
44	0x3e9c7b30	0.30562735
45	0x3ea389b8	0.3194101
46	0x3e121771	0.14266755
47	0xbd8a1236	-0.06741755
48	0x3dbeca6e	0.09315954
49	0x3d802b23	0.06258228
50	0xbe18ed9e	-0.14934394
51	0x3aa7282c	0.0012753061
52	0x3d08fc18	0.03344354
53	0xbe571d19	-0.21007194
54	0xbe6a747d	-0.22895999
55	0xbddb5ee3	-0.107114576
56	0xbe92e780	-0.28692245
57	0x3d47c764	0.048774138
58	0xbe9b8b62	-0.30379778
59	0xbe671ccc	-0.22569579
60	0x3d9668f8	0.0734424
61	0x3de41b29	0.11137993
62	0x3d4ca60a	0.049963035
63	0xbe0081b5	-0.1254948

fc2.weight f4 [32, 64]
0	0x3bdbc17a	0.006706414
1	0xbe09f2af	-0.13471483
2	0x3d105140	0.035233736
3	0x3a7140fb	0.0009203103
4	0x3cfefa6f	0.031125275
5	0x3e072051	0.13195921
6	0xbc61ced7	-0.013782225
7	0xbd12994e	-0.035790734
8	0xbda12686	-0.07868676
9	0xbda62a1b	-0.081135
10	0x3d86f74d	0.06590138
11	0x3d512fe2	0.051071055
12	0xbc836b7d	-0.016042465
13	0xbc4abe7f	-0.012374519
14	0x3cdca8f7	0.026936037
15	0xbe054897	-0.13015972
16	0x3d85226e	0.065007076
17	0xbd039936	-0.032128535
18	0xbc132ee9	-0.008983352
19	0xbd10bfe3	-0.035339247
20	0xbd5e8cd4	-0.054333523
21	0xbe019230	-0.12653422
22	0xbdee9cfa	-0.11651035
23	0xbd2bd247	-0.041948583
24	0xbaaaaedb	-0.0013022082
25	0xbdc44a8f	-0.095845334
26	0xbde6f681	-0.11277486
27	0xbdf1908a	-0.11795147
28	0x3dc24d9d	0.0948746
29	0x3b7887e4	0.0037922794
30	0x3dbed62c	0.09318194
31	0xbde5ea02	-0.11226274
32	0x3d1734b5	0.0369155
33	0x3d79091d	0.060799707
34	0xbc13ea0f	-0.009027972
35	0x3d2999c0	0.041406393
36	0x3d2e6428	0.042575985
37	0x3df251b8	0.11831993
38	0x3d670e94	0.056410387
39	0x3cce0794	0.025150098
40	0x3d4cc2b8	0.049990386
41	0xbdafa52a	-0.085764244
42	0x3dba5d5e	0.0909984
43	0x3af45b2a	0.0018642892
44	0x3d9ba9ef	0.07600772
45	0x3cf86a3e	0.030324098
46	0x3bfbb8ef	0.007681958
47	0xbd55c361	-0.05218828
48	0xbce3a1af	-0.027787058
49	0x3cea8672	0.028628562
50	0xbe0f51d0	-0.13996053
51	0xbe0cd8da	-0.13754597
52	0xbe131681	-0.14364053
53	0x3cdc5df2	0.026900265
54	0x3db3dc42	0.08782245
55	0x3d5c5fed	0.05380242
56	0xbdf43ccf	-0.11925661
57	0xbdfd5b17	-0.1237089
58	0xbdc0a0fe	-0.09405707
59	0x3d73cbf3	0.059520673
60	0xbdac68a1	-0.08418394
61	0xbe00890e	-0.12552282
62	0xbcda1f61	-0.02662629
63	0x3db54408	0.088508666
64	0xbe09432e	-0.13404533
65	0x3d9bc599	0.07606048
66	0xbd90f7cf	-0.07078516
67	0x3deb1ad2	0.11479725
68	0x3d9bf744	0.076155216
69	0x3d64663c	0.05576156
70	0x3dcf157e	0.10111521
71	0xbd1f1e22	-0.038847096
72	0x3d9324a9	0.07184727
73	0x3d5dec87	0.05418065
74	0x3b9d96b8	0.004809227
75	0x3db66f21	0.08907915
76	0xbcb6d80a	-0.022319812
77	0x3e0d1aad	0.13779707
78	0xbcac7d3f	-0.021055816
79	0x3d9163f0	0.0709914
80	0x3c941c07	0.01807977
81	0xbb907f13	-0.0044096797
82	0x3dc25df4	0.094905764
83	0xbd48b153	-0.048997235
84	0x3d93f25e	0.07223962
85	0x3db6512a	0.089021996
86	0x3cda40eb	0.026642283
87	0xbdd3a74d	-0.103346445
88	0x3cd032c0	0.025414824
89	0x3daa9975	0.08330051
90	0xbdd359ba	-0.10319848
91	0xbe1e3e13	-0.15453367
92	0xbd236c34	-0.039898112
93	0xbcb15834	-0.021648504
94	0xbde5b6a8	-0.112164795
95	0x3dcda25a	0.10040732
96	0xbdcf4166	-0.10119896
97	0xbdbe8488	-0.09302622
98	0xbd317c0a	-0.043331183
99	0x3dc2968b	0.0950137
100	0x3d1928d4	0.037392452
101	0x3c91a347	0.017778052
102	0x3bd92398	0.0066265576
103	0xbe0a1f62	-0.13488534
104	0x3d573b90	0.052547038
105	0xbd89b86f	-0.06724631
106	0xbd558012	-0.05212409
107	0x3dda2146	0.10650878
108	0xbd4dd24c	-0.050249383
109	0x3d852e4f	0.06502973
110	0xbce768f2	-0.028248284
111	0x3e08b4fb	0.13350289
112	0xbd3b348a	-0.045704402
113	0xbb853abe	-0.0040658405
114	0x3d4127df	0.047157165
115	0xbd9c0e84	-0.07619956
116	0x3cb4ca93	0.022069251
117	0xbd89a325	-0.067205705
118	0x3d636531	0.055516426
119	0xbe00a551	-0.12563063
120	0xbbab7794	-0.0052327607
121	0xbdd20ac5	-0.102559604
122	0xbdddb436	-0.10825388
123	0x3c551868	0.013006307
124	0x3d6d3ab1	0.0579173
125	0xbddd8df0	-0.10818088
126	0xbd928728	-0.07154685
127	0x3db8fe65	0.09032897
128	0x3d0035b1	0.031301204
129	0x3df9f06f	0.12204062
130	0xbd5d4d0b	-0.054028552
131	0x3c13d463	0.009022805
132	0xbdca1b9e	-0.09868549
133	0x3d9c8fdb	0.07644626
134	0x3d9cffaa	0.076659516
135	0x3d9005cd	0.070323564
136	0xbdc4bcc0	-0.09606314
137	0x3dee5d1f	0.11638855
138	0x3dff0d9a	0.12453766
139	0xbd6e98a5	-0.058251042
140	0x3d0d70b8	0.034531325
141	0x3c7353a2	0.014851483
142	0xbc08c2ca	-0.008347223
143	0xbe06f48b	-0.13179223
144	0x3d810a50	0.06300795
145	0x3d819c50	0.06328642
146	0xbd84154f	-0.06449377
147	0xbcde9174	-0.027168967
148	0x3dc515b7	0.096232824
149	0x3d0baa75	0.034098107
150	0x3c43d505	0.011952643
151	0x3d895587	0.06705766
152	0xbc8a5f20	-0.016891062
153	0x3d1ade3f	0.037809607
154	0xbd435204	-0.047685638
155	0xbc8fbf57	-0.017547293
156	0xbdd6c7fe	-0.10487364
157	0xbd8c0b78	-0.06838125
158	0x3d725b2a	0.059168972
159	0xbd4c0dce	-0.049817853
160	0x3d90111a	0.07034512
161	0xbdab91fa	-0.08377452
162	0x3ae60bf9	0.0017551176
163	0x3d5a1691	0.053244177
164	0x3dcb00c9	0.09912259
165	0x3d723eb8	0.059141845
166	0xbdb66abb	-0.08907076
167	0x3deb7c4c	0.11498317
168	0x3dfb1565	0.1225994
169	0xbcfc96a6	-0.030833554
170	0x3dadec42	0.08492328
171	0x3d0af82a	0.033928074
172	0x3d4377a8	0.047721535
173	0xbd995717	-0.07487314
174	0x3d8f9f80	0.07012844
175	0xbdb07733	-0.086164854
176	0xbda2c5db	-0.07947894
177	0x3d2cb407	0.042163875
178	0xbdd09e88	-0.101864874
179	0x3d634845	0.055488843
180	0x3df27713	0.11839118
181	0x3c987042	0.018608216
182	0x3e028c3d	0.12748809
183	0xbcd5e5d3	-0.026110565
184	0xbdc04e7c	-0.0938997
185	0xbded5089	-0.115876265
186	0xbd38d4cc	-0.045124814
187	0x3dd333a7	0.10312586
188	0x3e03d23a	0.12873164
189	0xbcfb94f6	-0.030710679
190	0xbdbc0254	-0.091801316
191	0xbdf3750a	-0.11887558
192	0xbcfc76be	-0.03081834
193	0xbd6375ab	-0.05553214
194	0xbd88c702	-0.06678583
195	0xbdc51511	-0.09623159
196	0x3d069880	0.03286028
197	0x3d02a2b1	0.031893436
198	0xbe04eccd	-0.12980957
199	0xba8818fb	-0.0010383421
200	0xbb90eded	-0.004422894
201	0x3dc93a58	0.09825581
202	0xbc06cb35	-0.008227159
203	0xbd31f7ac	-0.04344909
204	0x3c5dc160	0.013534874
205	0xba4b0075	-0.00077439036
206	0xbd85aacc	-0.065267175
207	0x3d5ec5ec	0.05438797
208	0x3de846aa	0.11341603
209	0xbe01768a	-0.12642875
210	0xbd514009	-0.05108646
211	0x3c4d9220	0.012547046
212	0x3da9dcd1	0.082940705
213	0x3d66a587	0.056310203
214	0x3d4426b0	0.047888458
215	0x3c6d3613	0.014478224
216	0x3c623609	0.013806828
217	0xbcacc7c9	-0.021091359
218	0xbd402a8d	-0.04691558
219	0x3d986454	0.07441011
220	0x3d1a7f60	0.03771913
221	0x3bc40a20	0.0059826523
222	0xbd95d53b	-0.07316061
223	0x3bd18730	0.0063942894
224	0x3d0c130b	0.03419785
225	0xbe0b75fb	-0.13619225
226	0x3d231674	0.039816335
227	0x3d30f38f	0.043201026
228	0x3d230bd7	0.039806213
229	0x3de06333	0.10956421
230	0x3cc769b0	0.024342388
231	0xbded8404	-0.115974456
232	0xbddf0e93	-0.10891452
233	0xbdfe88f8	-0.124284685
234	0x3d4706c4	0.048590437
235	0xbd432165	-0.04763927
236	0xbdd800f7	-0.10547059
237	0x3d902c8b	0.07039746
238	0x3ca94eeb	0.020667514
239	0xbd58d6ec	-0.05293934
240	0xbb29d221	-0.00259126
241	0x3dbfd7e3	0.09367349
242	0x3bf469e7	0.0074589136
243	0x3b92d65f	0.0044811214
244	0xbdc16aaa	-0.09444173
245	0x3c9f1ac0	0.019421935
246	0xbd26e544	-0.04074599
247	0x3da1040d	0.07862101
248	0x3de6ebef	0.112754695
249	0xbded6c1e	-0.11592887
250	0xbd181970	-0.037133634
251	0x3d818abf	0.06325292
252	0xbd9244ef	-0.07142054
253	0x3b7aff23	0.0038299046
254	0xbd6b25ab	-0.05740897
255	0xbdbbdc69	-0.09172899

fc2.bias f4 [32]
0	0x3d2a6e11	0.041608874
1	0xbd6623de	-0.05618655
2	0x3bf60b51	0.0075086732
3	0xbdab3bcb	-0.08361014
4	0x3de72ae3	0.11287477
5	0xbcf8d901	-0.030376913
6	0xbbabda8e	-0.0052445596
7	0x3d86f2a6	0.0658925
8	0xbd1e9ef9	-0.038725827
9	0xbd98f9fa	-0.07469554
10	0xbd0fcb7c	-0.035106167
11	0xbd02d22c	-0.031938717
12	0x3c5ce4e6	0.013482308
13	0x3da76b61	0.08174778
14	0xbd7fa678	-0.062414616
15	0xbd95b8ea	-0.0731066
16	0x3d347172	0.044053502
17	0x3ce950b9	0.028480874
18	0xbdea41a8	-0.11438304
19	0xbde63264	-0.1124008
20	0x3dbd27f7	0.09236138
21	0xbb1e8bb3	-0.0024192154
22	0x3dcdcc66	0.100487515
23	0xbd381634	-0.04494305
24	0xbdf70469	-0.12061388
25	0x3d0fee3d	0.03513931
26	0xbdea87f6	-0.11451714
27	0xbd98bef4	-0.074582964
28	0xba505ebb	-0.0007948686
29	0x3e06b660	0.13155508
30	0x3e0e9a98	0.1392616
31	0xbd5a08ab	-0.053230923

fc3.weight f4 [9, 32]
0	0xbdd1efd2	-0.1025082
1	0xbd44b5fe	-0.048025124
2	0x3cb394cf	0.021921543
3	0x3cac4658	0.021029636
4	0xbe161710	-0.14657235
5	0xbe2a3d26	-0.16624889
6	0xbd5cf7a4	-0.053947106
7	0x3d0baa28	0.03409782
8	0xbde9bb7c	-0.11412713
9	0x3d724d3f	0.0591557
10	0xbe216f53	-0.15765123
11	0x3cd79d56	0.02632014
12	0xbcb8cb20	-0.022557795
13	0xbd9acb4e	-0.075583085
14	0xbe123135	-0.14276583
15	0x3e2a13af	0.16609071
16	0x3e2377da	0.15963688
17	0xbd9bf8d1	-0.07615817
18	0xbd479ccf	-0.04873353
19	0x3cbffcd6	0.023435991
20	0x3e03a1ff	0.12854765
21	0xbda76b21	-0.0817473
22	0x3daca42a	0.08429749
23	0xbcd22b05	-0.025655279
24	0xbe1f7e3e	-0.15575501
25	0x3e42a3fb	0.19007866
26	0x3cee01b8	0.029053554
27	0x3d037856	0.032097183
28	0x3e1d22db	0.15345328
29	0x3d87efb5	0.06637517
30	0xbcda9167	-0.026680661
31	0x3e0993e0	0.13435316
32	0xbde34a9e	-0.110982165
33	0xbe2fd0d9	-0.17169513
34	0x3d693ad6	0.056940876
35	0x3c58b57f	0.013226866
36	0x3ca6b387	0.020349277
37	0xbdf0bff4	-0.11755362
38	0xbdfa2022	-0.1221316
39	0x3e3bff73	0.18359165
40	0xbde341af	-0.110965125
41	0xbdeabcec	-0.11461815
42	0x3e154aa2	0.14579251
43	0xbd809137	-0.062776975
44	0x3be3de7c	0.0069540124
45	0xbded82a9	-0.11597187
46	0xbc591220	-0.01324895
47	0x3de74199	0.11291809
48	0x3dbc44d4	0.091928154
49	0x3cd0ed7a	0.025503863
50	0x3dccb076	0.09994595
51	0x3ccfd257	0.025368853
52	0x3cbe95e4	0.023264833
53	0xbe21ce07	-0.1580125
54	0xbdab5ebd	-0.08367679
55	0x3e139e85	0.14415939
56	0x3e1e79f8	0.15476215
57	0x3e060ccb	0.13090818
58	0x3dded53a	0.108805135
59	0x3e0e78cc	0.13913268
60	0xbe1c3e14	-0.15258056
61	0x3e5a8d4c	0.21342963
62	0x3cb1704e	0.021659996
63	0xbd893e94	-0.06701389
64	0xbd513c52	-0.051082917
65	0x3d9678a0	0.07347226
66	0x3e395d73	0.18102054
67	0x3b915c13	0.004436025
68	0x3e5060a2	0.20349362
69	0x3c5f23fa	0.013619417
70	0xbceae4db	-0.02867358
71	0xbc377737	-0.011197857
72	0xbdc6d1e0	-0.09707999
73	0x3dc40c4a	0.095726565
74	0xbc5b5147	-0.013386077
75	0xbd05d900	-0.03267765
76	0xbdc0fc32	-0.094231024
77	0xbdd9010d	-0.105959035
78	0x3da4201e	0.08013938
79	0x3e04fb21	0.12986423
80	0xbe3b5369	-0.18293537
81	0x3e12d63f	0.14339541
82	0x3dbb57ae	0.09147583
83	0xbe15a837	-0.1461495
84	0xbe568d98	-0.20952451
85	0x3d78ceaa	0.060743965
86	0x3e561806	0.20907602
87	0x3ddb6750	0.10713065
88	0x3d8910b9	0.06692643
89	0x3e13c074	0.14428884
90	0xbd8bb9bc	-0.068225354
91	0x3e2749a6	0.16336688
92	0x3e39ea56	0.18155798
93	0xbdf97266	-0.12180023
94	0x3e4cc87d	0.19998355
95	0x3cdb86b5	0.026797632
96	0x3d0e61f6	0.03476139
97	0x3c1daaf8	0.009623282
98	0x3e177a0b	0.1479265
99	0xbdaec093	-0.08532824
100	0x3cbf2792	0.023334298
101	0xbdb301aa	-0.08740552
102	0x3da94f85	0.0826712
103	0x3c41f959	0.011839234
104	0xbe0f6413	-0.14003019
105	0x3d73813d	0.059449423
106	0xbe0388ce	-0.12845156
107	0xbd631001	-0.055435184
108	0xb9e8b130	-0.00044382503
109	0x3e02e19a	0.12781373
110	0x3e0bb9e3	0.13645129
111	0xbd4d10ca	-0.05006484
112	0x3dfcbea7	0.123410515
113	0x3e0b9519	0.13631095
114	0xbde0a40c	-0.109687895
115	0x3e1720fd	0.14758678
116	0xbddc8827	-0.107681565
117	0xbd42cc84	-0.047558323
118	0xbe04590c	-0.12924594
119	0x3dc70caf	0.09719216
120	0x3d993c3e	0.074821934
121	0x3d88e0f4	0.066835314
122	0x3db0bf56	0.086302444
123	0x3dc6fa80	0.09715748
124	0xbdc91c7b	-0.09819885
125	0xbe3fb8a7	-0.18722783
126	0x3dacc321	0.084356554
127	0xbda1c34f	-0.0789858
128	0x3e466cce	0.19377443
129	0xbd83c3f6	-0.06433861
130	0x3d74218a	0.059602298
131	0xbe111502	-0.1416817
132	0x3e3a3f53	0.18188219
133	0x3db3c891	0.087784894
134	0x3d850486	0.064950034
135	0x3c8d8922	0.017277304
136	0xbdc9fdc5	-0.09862856
137	0x3e34579b	0.17611544
138	0xbe25d0ca	-0.16192928
139	0xbbf96d80	-0.0076119304
140	0xbe0aca05	-0.13553627
141	0x3e226fe2	0.15862992
142	0xbe071b86	-0.13194093
143	0x3d64c323	0.05585016
144	0xbe0d73ba	-0.13813677
145	0xbe2f997c	-0.17148393
146	0x3c2bc1c2	0.010483207
147	0xbe2d439d	-0.16920324
148	0xbd34e6e8	-0.04416552
149	0xbdd7f192	-0.10544123
150	0xbddc4ed2	-0.10757221
151	0xbdad6007	-0.084655814
152	0xbe06094f	-0.13089488
153	0xbde82488	-0.11335093
154	0x3d469bf4	0.048488572
155	0xbe34ae26	-0.17644557
156	0xbd91a503	-0.071115516
157	0x3df02dd0	0.11727488
158	0x3e4b8b12	0.1987727
159	0xbd73ae50	-0.05949241
160	0xbbb2ad7e	-0.005452811
161	0x3d8927c7	0.0669704
162	0x3dbd0dd4	0.09231153
163	0x3db7cde2	0.08974816
164	0xbd648506	-0.055790924
165	0x3ded1ea4	0.1157811
166	0xbe186d1c	-0.14885372
167	0xbd439ff9	-0.047759984
168	0xbaef5e80	-0.0018262416
169	0x3d8b444b	0.06800135
170	0xbdd6ee66	-0.1049469
171	0x3c3a93c9	0.011387774
172	0x3e23f886	0.16012773
173	0x3e0d236a	0.1378304
174	0x3e29eea5	0.16594942
175	0xbc0d9138	-0.00864058
176	0xbd0a4499	-0.033756826
177	0x3df3b2f7	0.11899369
178	0x3db7cd07	0.08974653
179	0xbddb20f2	-0.10699643
180	0x3dc80cf0	0.09768093
181	0x3e230d88	0.1592313
182	0xbcb53aac	-0.022122703
183	0x3daaefe8	0.0834654
184	0x3db50ce6	0.08840351
185	0x3e2609b1	0.16214634
186	0x3c35b09f	0.011089473
187	0x3d4a06db	0.049322944
188	0x3e14e0b2	0.1453884
189	0x3e3fc2eb	0.18726699
190	0xbe107ebe	-0.14110848
191	0x3d5dfc7b	0.054195862
192	0x3e413025	0.18866022
193	0xbe27a97a	-0.16373244
194	0xbe0944fa	-0.13405219
195	0xbe2e5337	-0.17023931
196	0xbd97d98e	-0.07414542
197	0x3de462af	0.11151635
198	0x3dd8d355	0.105871834
199	0x3e362cfd	0.17790599
200	0x3bc6d1e1	0.0060675
201	0x3ba13020	0.004919067
202	0x3c426500	0.011864901
203	0xbd636f0a	-0.055525817
204	0x3e2a9c9b	0.16661303
205	0x3db0e297	0.086369686
206	0xbd6a3148	-0.057175905
207	0xbe092e17	-0.13396488
208	0x3e291f1d	0.16515775
209	0xbdd13cfb	-0.10216709
210	0x3b602c50	0.00342061
211	0x3d8f5846	0.06999259
212	0xbcbc2af3	-0.022969699
213	0xbd360c81	-0.04444552
214	0x3e15cdf6	0.14629349
215	0xbd9c5f68	-0.07635385
216	0xbb5534f7	-0.003253279
217	0xbdf369b4	-0.11885396
218	0xbe2d8cac	-0.16948193
219	0xbce35abf	-0.027753232
220	0x3e31d9d2	0.17368248
221	0xbd241023	-0.04005445
222	0x3d45d453	0.04829819
223	0xbe2331a9	-0.15936913
224	0xbdb5ceb1	-0.08877314
225	0x3d831cb8	0.06401962
226	0x3e26a601	0.16274263
227	0xbd8f049a	-0.069832996
228	0x3d06c25c	0.0329002
229	0x3c5f2918	0.013620637
230	0x3c98d05d	0.018654043
231	0xbd8e3781	-0.0694418
232	0xbd102702	-0.03519345
233	0x3db0d26a	0.08633883
234	0x3b88c8c0	0.004174322
235	0x3cbfb189	0.023400085
236	0x3de9fc4b	0.11425074
237	0xbcf85574	-0.030314185
238	0xbd7a7bde	-0.061153285
239	0x3e0ac82d	0.13552924
240	0x3d995246	0.074863955
241	0xbe2e875f	-0.17043827
242	0xbd82c52e	-0.06385265
243	0xbcb13d1c	-0.021635585
244	0x3d9ac402	0.07556917
245	0x3d3ad2ae	0.045611076
246	0x3e0d2ead	0.13787337
247	0x3e24a5a3	0.1607881
248	0x3c352589	0.011056312
249	0xbd8785cf	-0.06617319
250	0xbe33584f	-0.17514156
251	0x3e289181	0.16461755
252	0x3cb18268	0.021668628
253	0xbcae79b0	-0.02129826
254	0x3e2911af	0.16510652
255	0xbcb129c5	-0.021626363

fc3.bias f4 [9]
0	0x3d9ce322	0.0766051
1	0x3b4fed60	0.003172718
2	0x3c54881e	0.012971906
3	0x3e06fd77	0.13182627
4	0x3ce0e2ca	0.027451891
5	0x3b61e58c	0.0034469096
6	0xbd9fff6d	-0.078123905
7	0x3d3672c4	0.044543043
8	0x3e2aab43	0.16666894
